(64000, 28, 28, 1)
(64000,)
(10000, 28, 28, 1)
(10000,)
Model: "model_2"
_________________________________________________________________
 Layer (type)                Output Shape              Param #   
=================================================================
 input_3 (InputLayer)        [(None, 28, 28, 1)]       0         
                                                                 
 conv2d_14 (Conv2D)          (None, 14, 14, 32)        320       
                                                                 
 batch_normalization_26 (Ba  (None, 14, 14, 32)        128       
 tchNormalization)                                               
                                                                 
 re_lu_26 (ReLU)             (None, 14, 14, 32)        0         
                                                                 
 depthwise_conv2d_12 (Depth  (None, 14, 14, 32)        320       
 wiseConv2D)                                                     
                                                                 
 batch_normalization_27 (Ba  (None, 14, 14, 32)        128       
 tchNormalization)                                               
                                                                 
 re_lu_27 (ReLU)             (None, 14, 14, 32)        0         
                                                                 
 conv2d_15 (Conv2D)          (None, 14, 14, 64)        2112      
                                                                 
 batch_normalization_28 (Ba  (None, 14, 14, 64)        256       
 tchNormalization)                                               
                                                                 
 re_lu_28 (ReLU)             (None, 14, 14, 64)        0         
                                                                 
 depthwise_conv2d_13 (Depth  (None, 7, 7, 64)          640       
 wiseConv2D)                                                     
                                                                 
 batch_normalization_29 (Ba  (None, 7, 7, 64)          256       
 tchNormalization)                                               
                                                                 
 re_lu_29 (ReLU)             (None, 7, 7, 64)          0         
                                                                 
 conv2d_16 (Conv2D)          (None, 7, 7, 128)         8320      
                                                                 
 batch_normalization_30 (Ba  (None, 7, 7, 128)         512       
 tchNormalization)                                               
                                                                 
 re_lu_30 (ReLU)             (None, 7, 7, 128)         0         
                                                                 
 depthwise_conv2d_14 (Depth  (None, 7, 7, 128)         1280      
 wiseConv2D)                                                     
                                                                 
 batch_normalization_31 (Ba  (None, 7, 7, 128)         512       
 tchNormalization)                                               
                                                                 
 re_lu_31 (ReLU)             (None, 7, 7, 128)         0         
                                                                 
 conv2d_17 (Conv2D)          (None, 7, 7, 128)         16512     
                                                                 
 batch_normalization_32 (Ba  (None, 7, 7, 128)         512       
 tchNormalization)                                               
                                                                 
 re_lu_32 (ReLU)             (None, 7, 7, 128)         0         
                                                                 
 depthwise_conv2d_15 (Depth  (None, 4, 4, 128)         1280      
 wiseConv2D)                                                     
                                                                 
 batch_normalization_33 (Ba  (None, 4, 4, 128)         512       
 tchNormalization)                                               
                                                                 
 re_lu_33 (ReLU)             (None, 4, 4, 128)         0         
                                                                 
 conv2d_18 (Conv2D)          (None, 4, 4, 256)         33024     
                                                                 
 batch_normalization_34 (Ba  (None, 4, 4, 256)         1024      
 tchNormalization)                                               
                                                                 
 re_lu_34 (ReLU)             (None, 4, 4, 256)         0         
                                                                 
 depthwise_conv2d_16 (Depth  (None, 4, 4, 256)         2560      
 wiseConv2D)                                                     
                                                                 
 batch_normalization_35 (Ba  (None, 4, 4, 256)         1024      
 tchNormalization)                                               
                                                                 
 re_lu_35 (ReLU)             (None, 4, 4, 256)         0         
                                                                 
 conv2d_19 (Conv2D)          (None, 4, 4, 256)         65792     
                                                                 
 batch_normalization_36 (Ba  (None, 4, 4, 256)         1024      
 tchNormalization)                                               
                                                                 
 re_lu_36 (ReLU)             (None, 4, 4, 256)         0         
                                                                 
 depthwise_conv2d_17 (Depth  (None, 2, 2, 256)         2560      
 wiseConv2D)                                                     
                                                                 
 batch_normalization_37 (Ba  (None, 2, 2, 256)         1024      
 tchNormalization)                                               
                                                                 
 re_lu_37 (ReLU)             (None, 2, 2, 256)         0         
                                                                 
 conv2d_20 (Conv2D)          (None, 2, 2, 512)         131584    
                                                                 
 batch_normalization_38 (Ba  (None, 2, 2, 512)         2048      
 tchNormalization)                                               
                                                                 
 re_lu_38 (ReLU)             (None, 2, 2, 512)         0         
                                                                 
 global_average_pooling2d_2  (None, 512)               0         
  (GlobalAveragePooling2D)                                       
                                                                 
 dense_4 (Dense)             (None, 1024)              525312    
                                                                 
 dropout_2 (Dropout)         (None, 1024)              0         
                                                                 
 dense_5 (Dense)             (None, 10)                10250     
                                                                 
=================================================================
Total params: 810826 (3.09 MB)
Trainable params: 806346 (3.08 MB)
Non-trainable params: 4480 (17.50 KB)
_________________________________________________________________
Epoch 1/15
2000/2000 [==============================] - 125s 58ms/step - loss: 0.3670 - accuracy: 0.8787
…
2000/2000 [==============================] - 78s 39ms/step - loss: 0.0227 - accuracy: 0.9932
Epoch 15/15
2000/2000 [==============================] - 95s 48ms/step - loss: 0.0201 - accuracy: 0.9942
313/313 [==============================] - 5s 13ms/step
Model: "model_3"
_________________________________________________________________
 Layer (type)                Output Shape              Param #   
=================================================================
 input_4 (InputLayer)        [(None, 28, 28, 1)]       0         
                                                                 
 conv2d_21 (Conv2D)          (None, 28, 28, 24)        240       
                                                                 
 batch_normalization_39 (Ba  (None, 28, 28, 24)        96        
 tchNormalization)                                               
                                                                 
 re_lu_39 (ReLU)             (None, 28, 28, 24)        0         
                                                                 
 depthwise_conv2d_18 (Depth  (None, 28, 28, 24)        240       
 wiseConv2D)                                                     
                                                                 
 batch_normalization_40 (Ba  (None, 28, 28, 24)        96        
 tchNormalization)                                               
                                                                 
 re_lu_40 (ReLU)             (None, 28, 28, 24)        0         
                                                                 
 conv2d_22 (Conv2D)          (None, 28, 28, 24)        600       
                                                                 
 batch_normalization_41 (Ba  (None, 28, 28, 24)        96        
 tchNormalization)                                               
                                                                 
 re_lu_41 (ReLU)             (None, 28, 28, 24)        0         
                                                                 
 depthwise_conv2d_19 (Depth  (None, 28, 28, 24)        240       
 wiseConv2D)                                                     
                                                                 
 batch_normalization_42 (Ba  (None, 28, 28, 24)        96        
 tchNormalization)                                               
                                                                 
 re_lu_42 (ReLU)             (None, 28, 28, 24)        0         
                                                                 
 conv2d_23 (Conv2D)          (None, 28, 28, 24)        600       
                                                                 
 batch_normalization_43 (Ba  (None, 28, 28, 24)        96        
 tchNormalization)                                               
                                                                 
 re_lu_43 (ReLU)             (None, 28, 28, 24)        0         
                                                                 
 depthwise_conv2d_20 (Depth  (None, 28, 28, 24)        240       
 wiseConv2D)                                                     
                                                                 
 batch_normalization_44 (Ba  (None, 28, 28, 24)        96        
 tchNormalization)                                               
                                                                 
 re_lu_44 (ReLU)             (None, 28, 28, 24)        0         
                                                                 
 conv2d_24 (Conv2D)          (None, 28, 28, 24)        600       
                                                                 
 batch_normalization_45 (Ba  (None, 28, 28, 24)        96        
 tchNormalization)                                               
                                                                 
 re_lu_45 (ReLU)             (None, 28, 28, 24)        0         
                                                                 
 tf.reshape (TFOpLambda)     (None, 28, 28, 3, 8)      0         
                                                                 
 tf.compat.v1.transpose (TF  (None, 28, 28, 8, 3)      0         
 OpLambda)                                                       
                                                                 
 tf.reshape_1 (TFOpLambda)   (None, 28, 28, 24)        0         
                                                                 
 global_average_pooling2d_3  (None, 24)                0         
  (GlobalAveragePooling2D)                                       
                                                                 
 dense_6 (Dense)             (None, 1024)              25600     
                                                                 
 dropout_3 (Dropout)         (None, 1024)              0         
                                                                 
 dense_7 (Dense)             (None, 10)                10250     
                                                                 
=================================================================
Total params: 39282 (153.45 KB)
Trainable params: 38946 (152.13 KB)
Non-trainable params: 336 (1.31 KB)
_________________________________________________________________
Epoch 1/15
2000/2000 [==============================] - 88s 42ms/step - loss: 0.7410 - accuracy: 0.7435
…
