_______MOBILE NET______________
(64000, 28, 28, 1)
(64000,)
(10000, 28, 28, 1)
(10000,)
Model: "model_1"
_________________________________________________________________
 Layer (type)                Output Shape              Param #   
=================================================================
 input_2 (InputLayer)        [(None, 28, 28, 1)]       0         
                                                                 
 conv2d_7 (Conv2D)           (None, 14, 14, 32)        320       
                                                                 
 batch_normalization_13 (Ba  (None, 14, 14, 32)        128       
 tchNormalization)                                               
                                                                 
 re_lu_13 (ReLU)             (None, 14, 14, 32)        0         
                                                                 
 depthwise_conv2d_6 (Depthw  (None, 14, 14, 32)        320       
 iseConv2D)                                                      
                                                                 
 batch_normalization_14 (Ba  (None, 14, 14, 32)        128       
 tchNormalization)                                               
                                                                 
 re_lu_14 (ReLU)             (None, 14, 14, 32)        0         
                                                                 
 conv2d_8 (Conv2D)           (None, 14, 14, 64)        2112      
                                                                 
 batch_normalization_15 (Ba  (None, 14, 14, 64)        256       
 tchNormalization)                                               
                                                                 
 re_lu_15 (ReLU)             (None, 14, 14, 64)        0         
                                                                 
 depthwise_conv2d_7 (Depthw  (None, 7, 7, 64)          640       
 iseConv2D)                                                      
                                                                 
 batch_normalization_16 (Ba  (None, 7, 7, 64)          256       
 tchNormalization)                                               
                                                                 
 re_lu_16 (ReLU)             (None, 7, 7, 64)          0         
                                                                 
 conv2d_9 (Conv2D)           (None, 7, 7, 128)         8320      
                                                                 
 batch_normalization_17 (Ba  (None, 7, 7, 128)         512       
 tchNormalization)                                               
                                                                 
 re_lu_17 (ReLU)             (None, 7, 7, 128)         0         
                                                                 
 depthwise_conv2d_8 (Depthw  (None, 7, 7, 128)         1280      
 iseConv2D)                                                      
                                                                 
 batch_normalization_18 (Ba  (None, 7, 7, 128)         512       
 tchNormalization)                                               
                                                                 
 re_lu_18 (ReLU)             (None, 7, 7, 128)         0         
                                                                 
 conv2d_10 (Conv2D)          (None, 7, 7, 128)         16512     
                                                                 
 batch_normalization_19 (Ba  (None, 7, 7, 128)         512       
 tchNormalization)                                               
                                                                 
 re_lu_19 (ReLU)             (None, 7, 7, 128)         0         
                                                                 
 depthwise_conv2d_9 (Depthw  (None, 4, 4, 128)         1280      
 iseConv2D)                                                      
                                                                 
 batch_normalization_20 (Ba  (None, 4, 4, 128)         512       
 tchNormalization)                                               
                                                                 
 re_lu_20 (ReLU)             (None, 4, 4, 128)         0         
                                                                 
 conv2d_11 (Conv2D)          (None, 4, 4, 256)         33024     
                                                                 
 batch_normalization_21 (Ba  (None, 4, 4, 256)         1024      
 tchNormalization)                                               
                                                                 
 re_lu_21 (ReLU)             (None, 4, 4, 256)         0         
                                                                 
 depthwise_conv2d_10 (Depth  (None, 4, 4, 256)         2560      
 wiseConv2D)                                                     
                                                                 
 batch_normalization_22 (Ba  (None, 4, 4, 256)         1024      
 tchNormalization)                                               
                                                                 
 re_lu_22 (ReLU)             (None, 4, 4, 256)         0         
                                                                 
 conv2d_12 (Conv2D)          (None, 4, 4, 256)         65792     
                                                                 
 batch_normalization_23 (Ba  (None, 4, 4, 256)         1024      
 tchNormalization)                                               
                                                                 
 re_lu_23 (ReLU)             (None, 4, 4, 256)         0         
                                                                 
 depthwise_conv2d_11 (Depth  (None, 2, 2, 256)         2560      
 wiseConv2D)                                                     
                                                                 
 batch_normalization_24 (Ba  (None, 2, 2, 256)         1024      
 tchNormalization)                                               
                                                                 
 re_lu_24 (ReLU)             (None, 2, 2, 256)         0         
                                                                 
 conv2d_13 (Conv2D)          (None, 2, 2, 512)         131584    
                                                                 
 batch_normalization_25 (Ba  (None, 2, 2, 512)         2048      
 tchNormalization)                                               
                                                                 
 re_lu_25 (ReLU)             (None, 2, 2, 512)         0         
                                                                 
 global_average_pooling2d_1  (None, 512)               0         
  (GlobalAveragePooling2D)                                       
                                                                 
 dense_2 (Dense)             (None, 1024)              525312    
                                                                 
 dropout_1 (Dropout)         (None, 1024)              0         
                                                                 
 dense_3 (Dense)             (None, 10)                10250     
                                                                 
=================================================================
Total params: 810826 (3.09 MB)
Trainable params: 806346 (3.08 MB)
Non-trainable params: 4480 (17.50 KB)
_________________________________________________________________
Epoch 1/30
2000/2000 [==============================] - 257s 99ms/step - loss: 0.3427 - accuracy: 0.8878
…
MobileNet-0.9742612011439467 
F1-score:
MobileNet-0.8964912280701754
Average:
MobileNet-0.8856929407722551 
Running time:
 MobileNet-5700.63 seconds
_______SHUFFLE NET______________
(64000, 28, 28, 1)
(64000,)
(10000, 28, 28, 1)
(10000,)
Model: "model_1"
_________________________________________________________________
 Layer (type)                Output Shape              Param #   
=================================================================
 input_2 (InputLayer)        [(None, 28, 28, 1)]       0         
                                                                 
 conv2d_4 (Conv2D)           (None, 28, 28, 24)        240       
                                                                 
 batch_normalization_7 (Bat  (None, 28, 28, 24)        96        
 chNormalization)                                                
                                                                 
 re_lu_7 (ReLU)              (None, 28, 28, 24)        0         
                                                                 
 depthwise_conv2d_3 (Depthw  (None, 28, 28, 24)        240       
 iseConv2D)                                                      
                                                                 
 batch_normalization_8 (Bat  (None, 28, 28, 24)        96        
 chNormalization)                                                
                                                                 
 re_lu_8 (ReLU)              (None, 28, 28, 24)        0         
                                                                 
 conv2d_5 (Conv2D)           (None, 28, 28, 24)        600       
                                                                 
 batch_normalization_9 (Bat  (None, 28, 28, 24)        96        
 chNormalization)                                                
                                                                 
 re_lu_9 (ReLU)              (None, 28, 28, 24)        0         
                                                                 
 depthwise_conv2d_4 (Depthw  (None, 28, 28, 24)        240       
 iseConv2D)                                                      
                                                                 
 batch_normalization_10 (Ba  (None, 28, 28, 24)        96        
 tchNormalization)                                               
                                                                 
 re_lu_10 (ReLU)             (None, 28, 28, 24)        0         
                                                                 
 conv2d_6 (Conv2D)           (None, 28, 28, 24)        600       
                                                                 
 batch_normalization_11 (Ba  (None, 28, 28, 24)        96        
 tchNormalization)                                               
                                                                 
 re_lu_11 (ReLU)             (None, 28, 28, 24)        0         
                                                                 
 depthwise_conv2d_5 (Depthw  (None, 28, 28, 24)        240       
 iseConv2D)                                                      
                                                                 
 batch_normalization_12 (Ba  (None, 28, 28, 24)        96        
 tchNormalization)                                               
                                                                 
 re_lu_12 (ReLU)             (None, 28, 28, 24)        0         
                                                                 
 conv2d_7 (Conv2D)           (None, 28, 28, 24)        600       
                                                                 
 batch_normalization_13 (Ba  (None, 28, 28, 24)        96        
 tchNormalization)                                               
                                                                 
 re_lu_13 (ReLU)             (None, 28, 28, 24)        0         
                                                                 
 tf.reshape_2 (TFOpLambda)   (None, 28, 28, 3, 8)      0         
                                                                 
 tf.compat.v1.transpose_1 (  (None, 28, 28, 8, 3)      0         
 TFOpLambda)                                                     
                                                                 
 tf.reshape_3 (TFOpLambda)   (None, 28, 28, 24)        0         
                                                                 
 global_average_pooling2d_1  (None, 24)                0         
  (GlobalAveragePooling2D)                                       
                                                                 
 dense_2 (Dense)             (None, 1024)              25600     
                                                                 
 dropout_1 (Dropout)         (None, 1024)              0         
                                                                 
 dense_3 (Dense)             (None, 10)                10250     
                                                                 
=================================================================
Total params: 39282 (153.45 KB)
Trainable params: 38946 (152.13 KB)
Non-trainable params: 336 (1.31 KB)
_________________________________________________________________
Epoch 1/30
2000/2000 [==============================] - 119s 56ms/step - loss: 0.7458 - accuracy: 0.7397
…
