…
WARNING:tensorflow:From C:\Users\hp\AppData\Local\Programs\Python\Python311\Lib\site-packages\keras\src\layers\normalization\batch_normalization.py:979: The name tf.nn.fused_batch_norm is deprecated. Please use tf.compat.v1.nn.fused_batch_norm instead.

Model: "model"
_________________________________________________________________
 Layer (type)                Output Shape              Param #   
=================================================================
 input_1 (InputLayer)        [(None, 28, 28, 1)]       0         
                                                                 
 conv2d (Conv2D)             (None, 14, 14, 32)        320       
                                                                 
 batch_normalization (Batch  (None, 14, 14, 32)        128       
 Normalization)                                                  
                                                                 
 re_lu (ReLU)                (None, 14, 14, 32)        0         
                                                                 
 depthwise_conv2d (Depthwis  (None, 14, 14, 32)        320       
 eConv2D)                                                        
                                                                 
 batch_normalization_1 (Bat  (None, 14, 14, 32)        128       
 chNormalization)                                                
                                                                 
 re_lu_1 (ReLU)              (None, 14, 14, 32)        0         
                                                                 
 conv2d_1 (Conv2D)           (None, 14, 14, 64)        2112      
                                                                 
 batch_normalization_2 (Bat  (None, 14, 14, 64)        256       
 chNormalization)                                                
                                                                 
 re_lu_2 (ReLU)              (None, 14, 14, 64)        0         
                                                                 
 depthwise_conv2d_1 (Depthw  (None, 7, 7, 64)          640       
 iseConv2D)                                                      
                                                                 
 batch_normalization_3 (Bat  (None, 7, 7, 64)          256       
 chNormalization)                                                
                                                                 
 re_lu_3 (ReLU)              (None, 7, 7, 64)          0         
                                                                 
 conv2d_2 (Conv2D)           (None, 7, 7, 128)         8320      
                                                                 
 batch_normalization_4 (Bat  (None, 7, 7, 128)         512       
 chNormalization)                                                
                                                                 
 re_lu_4 (ReLU)              (None, 7, 7, 128)         0         
                                                                 
 depthwise_conv2d_2 (Depthw  (None, 7, 7, 128)         1280      
 iseConv2D)                                                      
                                                                 
 batch_normalization_5 (Bat  (None, 7, 7, 128)         512       
 chNormalization)                                                
                                                                 
 re_lu_5 (ReLU)              (None, 7, 7, 128)         0         
                                                                 
 conv2d_3 (Conv2D)           (None, 7, 7, 128)         16512     
                                                                 
 batch_normalization_6 (Bat  (None, 7, 7, 128)         512       
 chNormalization)                                                
                                                                 
 re_lu_6 (ReLU)              (None, 7, 7, 128)         0         
                                                                 
 depthwise_conv2d_3 (Depthw  (None, 4, 4, 128)         1280      
 iseConv2D)                                                      
                                                                 
 batch_normalization_7 (Bat  (None, 4, 4, 128)         512       
 chNormalization)                                                
                                                                 
 re_lu_7 (ReLU)              (None, 4, 4, 128)         0         
                                                                 
 conv2d_4 (Conv2D)           (None, 4, 4, 256)         33024     
                                                                 
 batch_normalization_8 (Bat  (None, 4, 4, 256)         1024      
 chNormalization)                                                
                                                                 
 re_lu_8 (ReLU)              (None, 4, 4, 256)         0         
                                                                 
 depthwise_conv2d_4 (Depthw  (None, 4, 4, 256)         2560      
 iseConv2D)                                                      
                                                                 
 batch_normalization_9 (Bat  (None, 4, 4, 256)         1024      
 chNormalization)                                                
                                                                 
 re_lu_9 (ReLU)              (None, 4, 4, 256)         0         
                                                                 
 conv2d_5 (Conv2D)           (None, 4, 4, 256)         65792     
                                                                 
 batch_normalization_10 (Ba  (None, 4, 4, 256)         1024      
 tchNormalization)                                               
                                                                 
 re_lu_10 (ReLU)             (None, 4, 4, 256)         0         
                                                                 
 depthwise_conv2d_5 (Depthw  (None, 2, 2, 256)         2560      
 iseConv2D)                                                      
                                                                 
 batch_normalization_11 (Ba  (None, 2, 2, 256)         1024      
 tchNormalization)                                               
                                                                 
 re_lu_11 (ReLU)             (None, 2, 2, 256)         0         
                                                                 
 conv2d_6 (Conv2D)           (None, 2, 2, 512)         131584    
                                                                 
 batch_normalization_12 (Ba  (None, 2, 2, 512)         2048      
 tchNormalization)                                               
                                                                 
 re_lu_12 (ReLU)             (None, 2, 2, 512)         0         
                                                                 
 global_average_pooling2d (  (None, 512)               0         
 GlobalAveragePooling2D)                                         
                                                                 
 dense (Dense)               (None, 1024)              525312    
                                                                 
 dropout (Dropout)           (None, 1024)              0         
                                                                 
 dense_1 (Dense)             (None, 10)                10250     
                                                                 
=================================================================
Total params: 810826 (3.09 MB)
Trainable params: 806346 (3.08 MB)
Non-trainable params: 4480 (17.50 KB)
_________________________________________________________________
WARNING:tensorflow:From C:\Users\hp\AppData\Local\Programs\Python\Python311\Lib\site-packages\keras\src\optimizers\__init__.py:309: The name tf.train.Optimizer is deprecated. Please use tf.compat.v1.train.Optimizer instead.
…
WARNING:tensorflow:From C:\Users\hp\AppData\Local\Programs\Python\Python311\Lib\site-packages\keras\src\layers\normalization\batch_normalization.py:979: The name tf.nn.fused_batch_norm is deprecated. Please use tf.compat.v1.nn.fused_batch_norm instead.

Model: "model"
_________________________________________________________________
 Layer (type)                Output Shape              Param #   
=================================================================
 input_1 (InputLayer)        [(None, 28, 28, 1)]       0         
                                                                 
 conv2d (Conv2D)             (None, 28, 28, 24)        240       
                                                                 
 batch_normalization (Batch  (None, 28, 28, 24)        96        
 Normalization)                                                  
                                                                 
 re_lu (ReLU)                (None, 28, 28, 24)        0         
                                                                 
 depthwise_conv2d (Depthwis  (None, 28, 28, 24)        240       
 eConv2D)                                                        
                                                                 
 batch_normalization_1 (Bat  (None, 28, 28, 24)        96        
 chNormalization)                                                
                                                                 
 re_lu_1 (ReLU)              (None, 28, 28, 24)        0         
                                                                 
 conv2d_1 (Conv2D)           (None, 28, 28, 24)        600       
                                                                 
 batch_normalization_2 (Bat  (None, 28, 28, 24)        96        
 chNormalization)                                                
                                                                 
 re_lu_2 (ReLU)              (None, 28, 28, 24)        0         
                                                                 
 depthwise_conv2d_1 (Depthw  (None, 28, 28, 24)        240       
 iseConv2D)                                                      
                                                                 
 batch_normalization_3 (Bat  (None, 28, 28, 24)        96        
 chNormalization)                                                
                                                                 
 re_lu_3 (ReLU)              (None, 28, 28, 24)        0         
                                                                 
 conv2d_2 (Conv2D)           (None, 28, 28, 24)        600       
                                                                 
 batch_normalization_4 (Bat  (None, 28, 28, 24)        96        
 chNormalization)                                                
                                                                 
 re_lu_4 (ReLU)              (None, 28, 28, 24)        0         
                                                                 
 depthwise_conv2d_2 (Depthw  (None, 28, 28, 24)        240       
 iseConv2D)                                                      
                                                                 
 batch_normalization_5 (Bat  (None, 28, 28, 24)        96        
 chNormalization)                                                
                                                                 
 re_lu_5 (ReLU)              (None, 28, 28, 24)        0         
                                                                 
 conv2d_3 (Conv2D)           (None, 28, 28, 24)        600       
                                                                 
 batch_normalization_6 (Bat  (None, 28, 28, 24)        96        
 chNormalization)                                                
                                                                 
 re_lu_6 (ReLU)              (None, 28, 28, 24)        0         
                                                                 
 tf.reshape (TFOpLambda)     (None, 28, 28, 3, 8)      0         
                                                                 
 tf.compat.v1.transpose (TF  (None, 28, 28, 8, 3)      0         
 OpLambda)                                                       
                                                                 
 tf.reshape_1 (TFOpLambda)   (None, 28, 28, 24)        0         
                                                                 
 global_average_pooling2d (  (None, 24)                0         
 GlobalAveragePooling2D)                                         
                                                                 
 dense (Dense)               (None, 1024)              25600     
                                                                 
 dropout (Dropout)           (None, 1024)              0         
                                                                 
 dense_1 (Dense)             (None, 10)                10250     
                                                                 
=================================================================
Total params: 39282 (153.45 KB)
Trainable params: 38946 (152.13 KB)
Non-trainable params: 336 (1.31 KB)
_________________________________________________________________
WARNING:tensorflow:From C:\Users\hp\AppData\Local\Programs\Python\Python311\Lib\site-packages\keras\src\optimizers\__init__.py:309: The name tf.train.Optimizer is deprecated. Please use tf.compat.v1.train.Optimizer instead.
…
